LSTM demo/model.pt (torch_old, 46187 bytes, 18 tensors)

eb.weight f4 [7, 16]
0	0x3ee50f4a	0.44738227
1	0x3e704f2e	0.23467705
2	0x3cd9fb98	0.026609227
3	0xbe680cd2	-0.2266114
4	0xbf01a78d	-0.5064629
5	0xbe87bada	-0.26509744
6	0x3f393940	0.7235298
7	0x3e972e96	0.2952773
8	0x3fc18566	1.5118835
9	0x3f2056e8	0.6263261
10	0xbf1752e7	-0.59110874
11	0xbdc9cc93	-0.098534726
12	0xbf763ded	-0.9618824
13	0xbf4e0815	-0.8048108
14	0x3f69d243	0.9133646
15	0x3faf6289	1.3701946
16	0xbf57d4f3	-0.8430931
17	0x3d92c83b	0.07167097
18	0xbe71d0bc	-0.23614782
19	0xbfc7dbf8	-1.5614004
20	0xbe9a8634	-0.30180514
21	0xbf4f1dfd	-0.80905133
22	0xbde0a3d2	-0.10968746
23	0x3e46de31	0.19420697
24	0x3eacc52c	0.3374418
25	0x3f25890c	0.6466224
26	0xbf82565f	-1.0182608
27	0xbee74789	-0.45171764
28	0x3f57f670	0.8436041
29	0xbd5b75dd	-0.0535792
30	0xbf4f0085	-0.8086017
31	0x3ee9692f	0.4558806
32	0xbea15e81	-0.31517413
33	0xbd88ed30	-0.06685865
34	0xbe42cc54	-0.19023257
35	0xbd9ad9d4	-0.07561079
36	0xbe675998	-0.22592771
37	0xbfddff92	-1.7343619
38	0xbf65df97	-0.89794296
39	0x3ffd8996	1.9807613
40	0x3f8122a3	1.0088695
41	0x3f90c707	1.1310738
42	0xbf6ee3f2	-0.93316567
43	0xbf3ce384	-0.7378466
44	0x3f823f87	1.0175637
45	0xbf3004fa	-0.68757594
46	0xbf2f56a8	-0.684916
47	0xbf4c5c64	-0.79828477
48	0x3f62f722	0.88658345
49	0xbff734f2	-1.9313033
50	0xbfe40c90	-1.7816334
51	0xbebba67b	-0.36650452
52	0xbf9b11e4	-1.2114835
53	0x3dbb0542	0.09131862
54	0xbf278b6d	-0.6544712
55	0x3fe0b063	1.7553829
56	0xbffbfb01	-1.9685975
57	0x3ee1ad3f	0.4407749
58	0x3cfd6d0c	0.030935787
59	0x3f91d8e7	1.1394318
60	0x3e9b030a	0.30275756
61	0x4008141d	2.1262276
62	0xbe7a6ee6	-0.24456367
63	0xbf381e45	-0.7192119
64	0x3d8f3b67	0.06993752
65	0xbf3e99f3	-0.7445366
66	0x3fbc422f	1.4707698
67	0x3f038dce	0.5138825
68	0xbf5299a1	-0.8226567
69	0xbf51555d	-0.8177088
70	0xbf0d5a3d	-0.5521582
71	0xbe32472b	-0.17409961
72	0x3ef7b366	0.48379058
73	0xbf99f73b	-1.2028574
74	0x3f00526b	0.5012576
75	0xbec48227	-0.38380548
76	0xbdcddfa6	-0.10052423
77	0x3df316b4	0.11869565
78	0x3f919f87	1.1376809
79	0xbf894587	-1.0724343
80	0xbf959504	-1.1686101
81	0xbc80d6c7	-0.015727414
82	0xbf94376a	-1.1579411
83	0xbf4128e8	-0.75453043
84	0x3f010cdb	0.5041024
85	0x3e12f6c2	0.14351943
86	0xbf84e785	-1.0383154
87	0xbfa20528	-1.2657824
88	0xc0149f7c	-2.3222342
89	0xbfea96ce	-1.8327272
90	0xbf1cc1dd	-0.6123331
91	0xbfa42e5e	-1.282665
92	0xbeacc631	-0.33744958
93	0xbf001c8e	-0.5004357
94	0xbf2e0318	-0.6797347
95	0x3e8b82ef	0.27248332
96	0x3e747747	0.23873626
97	0xbf7f0bcb	-0.9962737
98	0xbed97ae9	-0.42476586
99	0xbf4f085b	-0.80872124
100	0x3f28358c	0.65706706
101	0x3fc19eec	1.5126624
102	0xbf6ef62c	-0.9334438
103	0x3fac9b8a	1.3484967
104	0x3f93e56e	1.1554391
105	0x3ebb4c79	0.36581782
106	0xbd82b114	-0.06381431
107	0xbc7844c5	-0.015153115
108	0x3fc9aecd	1.575647
109	0x3d8da1d2	0.069156304
110	0xbf489195	-0.7834714
111	0xbf416cf7	-0.7555689

lstm.weight_ih_l0 f4 [64, 16]
0	0xbd9aaaac	-0.07552084
1	0x3de73617	0.11289614
2	0xbc23df10	-0.010001913
3	0x3db3c9f3	0.08778753
4	0x3e0f0635	0.13967212
5	0xbcccdd5f	-0.025007902
6	0xbe695159	-0.22784938
7	0xbe832126	-0.25611228
8	0xbd844762	-0.06458928
9	0xbe850ed4	-0.25987875
10	0x3d2c2feb	0.042037886
11	0x3e3d2d85	0.18474396
12	0xbe186d0e	-0.14885351
13	0x3e6a791f	0.22897767
14	0xbdbd8f73	-0.092558764
15	0x3db00bf1	0.08596028
16	0x3e7533e1	0.23945571
17	0xbe8115d3	-0.25211963
18	0xbdb82b0d	-0.08992586
19	0x3e601c18	0.21885717
20	0xbdaed721	-0.08537126
21	0xbe75d992	-0.24008778
22	0x3e55e78b	0.20889108
23	0x3deb5003	0.114898704
24	0xbddc689c	-0.1076214
25	0x3ddebdcb	0.10876044
26	0xbe4d4de0	-0.20049238
27	0x3e846d25	0.2586452
28	0xbd99d943	-0.075121425
29	0xbdec6f55	-0.115446724
30	0x3e69a94a	0.22818485
31	0xbe3508f1	-0.17679192
32	0x3e6b97be	0.23007104
33	0xbe24e9cc	-0.16104811
34	0x3e171003	0.14752202
35	0xbe0a71dc	-0.13519996
36	0x3e014429	0.12623657
37	0x3e682956	0.22672018
38	0xbe124d18	-0.14287221
39	0x3d540fa6	0.051772736
40	0xbe26ffa5	-0.16308458
41	0x3d51398b	0.051080268
42	0xbd6e8c53	-0.058239292
43	0xbe5971b1	-0.21234776
44	0x3c1dc7e8	0.009630181
45	0xbca411a5	-0.020027945
46	0xbe04b53a	-0.12959757
47	0xbe202e8d	-0.15642758
48	0x3dfa2986	0.12214951
49	0xbe1b2499	-0.1515068
50	0x3e41ac34	0.18913347
51	0xbe398bc5	-0.18119724
52	0x3c928756	0.017886799
53	0xbe1e67ae	-0.15469238
54	0xbd25a75b	-0.040442806
55	0xbe494cfe	-0.19658276
56	0xbd4ec117	-0.050477114
57	0x3e404831	0.18777539
58	0xbe27302f	-0.16326974
59	0x3d957b83	0.072989486
60	0xbe1916c2	-0.14950088
61	0xbeb4feae	-0.35350555
62	0x3eaa9c01	0.33322147
63	0x3eb301cc	0.34962308
64	0x3e70edb7	0.23528181
65	0xbde0011a	-0.1093771
66	0x3dbcca5a	0.09218283
67	0xbe3e6fa0	-0.18597269
68	0x3ddfba9c	0.10924265
69	0x3b6966ea	0.003561432
70	0xbd5c7bbe	-0.053828947
71	0xbd2ca0e7	-0.042145636
72	0xbca033e5	-0.019555995
73	0xbd83803b	-0.064209424
74	0x3c541108	0.012943514
75	0xbe0c9e7d	-0.13732333
76	0x3e060d42	0.13090995
77	0x3df44fd7	0.11929291
78	0x3d702afa	0.058634736
79	0x3e5754e5	0.21028478
80	0xbd9c6c30	-0.07637823
81	0x3e9ce043	0.30639848
82	0x3d29c829	0.041450653
83	0x3d428f9c	0.047500238
84	0x3d374016	0.04473885
85	0xbc8c5002	-0.017127994
86	0xbd29a3a3	-0.04141582
87	0x3e387775	0.18014319
88	0x3e8c9661	0.2745848
89	0x3eb718d3	0.35761127
90	0xbebb6b4e	-0.36605304
91	0xbe4a7fac	-0.19775265
92	0xbddd0624	-0.10792187
93	0xbea143c7	-0.31497023
94	0xbea3bc25	-0.3197948
95	0xbaf7b0b5	-0.0018897267
96	0xbd681362	-0.05665911
97	0x3d52e37e	0.051486485
98	0x3e66c4d7	0.22536026
99	0xbe31b6ca	-0.17354885
100	0x3d5d76e4	0.05406846
101	0x3e1cdbf4	0.1531828
102	0x3e8c190f	0.27362868
103	0xbda2a783	-0.079421066
104	0x3e1ca846	0.15298566
105	0x3eb0c9e3	0.34529027
106	0xbe3a6e12	-0.18206051
107	0x3e4107f9	0.18850698
108	0x3dd3fda4	0.103511125
109	0x3dd610c8	0.104524195
110	0xbbce6b9b	-0.0062994487
111	0x3e69cd62	0.22832254
112	0x3e724690	0.2365973
113	0x3e5b3cac	0.21409863
114	0x3c9103de	0.01770204
115	0xbd25ff0e	-0.040526442
116	0x3d91939a	0.07108231
117	0xbd8f4521	-0.06995607
118	0xbdcd2e93	-0.10018649
119	0x3d0abfbe	0.033874266
120	0xbe459575	-0.19295295
121	0xbd930004	-0.07177737
122	0xbd7df997	-0.062005606
123	0x3d5fe6bb	0.0546634
124	0x3e2c7065	0.1683975
125	0xbe7d62b2	-0.2474468
126	0x3daa1932	0.08305587
127	0x3eaae3c6	0.33376902
128	0x3db63b2e	0.088980064
129	0xbe6b81ed	-0.22998782
130	0x3e22e3e5	0.15907247
131	0x3e65db5d	0.22446962
132	0x3d213e8d	0.039366294
133	0xbbce0f28	-0.006288428
134	0xbda5c554	-0.08094278
135	0xbcb54be9	-0.022130923
136	0xbde35819	-0.11100788
137	0xbdd74a9f	-0.1051228
138	0x3e21e74c	0.15810889
139	0x3e101712	0.140713
140	0xbd011044	-0.031509653
141	0x3df337ca	0.11875875
142	0xbdc6ad2b	-0.09700998
143	0xbd228ba7	-0.039683964
144	0xbd189bb7	-0.037257876
145	0x3e496449	0.19667162
146	0x3e3c09ca	0.18363109
147	0xbe04b63e	-0.12960145
148	0xbc99ad12	-0.018759284
149	0x3e38f901	0.18063737
150	0x3e9df848	0.30853486
151	0xbe38a76d	-0.18032618
152	0xbe0b8493	-0.13624792
153	0x3d5db2aa	0.054125465
154	0x3dc7adfe	0.09749983
155	0xbd91d493	-0.071206234
156	0x3cd9c508	0.02658321
157	0xbdb27204	-0.08713153
158	0x3d9ee7da	0.07759066
159	0x3e82cefe	0.25548548
160	0xbdf48577	-0.11939519
161	0x3dc9d42f	0.09854924
162	0xbccd7f86	-0.025085222
163	0xbd074399	-0.03302345
164	0xbe948ea4	-0.29015076
165	0xbe4942c2	-0.19654372
166	0x3e97fd6b	0.2968553
167	0x3ddfb035	0.10922281
168	0x3e531543	0.2061358
169	0xbe55dc54	-0.2088483
170	0xbe5c07e8	-0.21487391
171	0xbdb63b44	-0.08898023
172	0x3dbb9660	0.09159541
173	0x3e1b5616	0.15169558
174	0x3e96dbad	0.29464474
175	0x3e8b3a49	0.27192906
176	0x3ddaada9	0.10677654
177	0xbd029e79	-0.031889413
178	0x3e0f8c2e	0.14018318
179	0x3e33a653	0.17543916
180	0xbe961d2d	-0.29319134
181	0xbdf3db3e	-0.119070515
182	0x3c5dc837	0.0135365045
183	0xbc00fa6a	-0.007872203
184	0x3da158f7	0.07878297
185	0x3e83f8c8	0.25775743
186	0xbe30ba1e	-0.17258498
187	0xbd891ee2	-0.066953436
188	0x3dc0d17f	0.09414958
189	0xbe1bd00d	-0.15216084
190	0xbd448b06	-0.047984146
191	0x3e9b8a14	0.30378783
192	0xbd431928	-0.047631413
193	0x3ea5176a	0.32244426
194	0x3e19b810	0.1501162
195	0x3dbf26bd	0.093335606
196	0x3d4ade58	0.04952845
197	0xbe62587d	-0.22104068
198	0xbc201d99	-0.009772682
199	0xbe87d699	-0.26530913
200	0x3ddd28f9	0.107988305
201	0x3e706002	0.23474124
202	0x3e3a2b37	0.18180548
203	0x3dd0d724	0.10197285
204	0x3d9a251f	0.075266115
205	0xbd1a85a4	-0.037725106
206	0xbda070d7	-0.078340225
207	0x3e926a57	0.28596756
208	0x3e0cab2a	0.13737169
209	0xbe504a1e	-0.20340773
210	0xbcfc11ee	-0.030770268
211	0xbd67d770	-0.05660194
212	0xbdfb6193	-0.1227447
213	0xbd14ec34	-0.036358073
214	0x3dcf4db8	0.101222456
215	0xbdca70ad	-0.098847724
216	0xbb076965	-0.0020662185
217	0xbe7e5f60	-0.2484107
218	0xbe6360a6	-0.22204837
219	0x3d5be437	0.05368444
220	0x3e091696	0.13387522
221	0x3d50ae4d	0.050947476
222	0x3c0be346	0.008538073
223	0x3e733fc3	0.23754792
224	0xbd265d1d	-0.040616143
225	0xbdd2c5d0	-0.10291636
226	0xbe1d2483	-0.1534596
227	0x3d8f0ffe	0.06985472
228	0x3d2aaa72	0.041666456
229	0x3c1f0c54	0.009707529
230	0x3dbd95c7	0.092570834
231	0x3be5be05	0.0070111775
232	0x3e9e1846	0.30877894
233	0x3e27dcb5	0.16392787
234	0x3d449b14	0.047999457
235	0xbe3a1d7b	-0.18175308
236	0xbcce645f	-0.025194345
237	0xbe122e76	-0.14275536
238	0x3d78d1a1	0.060746793
239	0x3eb3d81c	0.35125816
240	0x3d7c2bd4	0.061565235
241	0x3e4ab608	0.19796002
242	0x3e9e2c9f	0.30893418
243	0x3e118434	0.14210588
244	0xbe3eb8f4	-0.18625242
245	0x3e0f4fc8	0.13995278
246	0xbe904364	-0.28176415
247	0xbd8d11bd	-0.06888149
248	0xbe453d50	-0.1926167
249	0xbe276dd7	-0.16350494
250	0xbe3f66a6	-0.18691501
251	0x3dd2a0a6	0.102845475
252	0x3e52b93a	0.20578471
253	0x3cc2fbc5	0.023801694
254	0xbe913a1b	-0.28364643
255	0xbe1c0917	-0.15237843

lstm.weight_hh_l0 f4 [64, 16]
0	0xbdcd7e16	-0.100338146
1	0x3e4b4511	0.19850565
2	0x3e6baf6d	0.23016138
3	0x3c539bdd	0.012915579
4	0xbe18a931	-0.14908291
5	0x3cc4153f	0.023935912
6	0x3e47f95b	0.19528715
7	0x3c74c8cb	0.014940451
8	0xbd7c1af1	-0.06154913
9	0x3e03fab2	0.12888601
10	0xbe526eb6	-0.20550045
11	0x3e28f50c	0.16499728
12	0xbce76236	-0.028245073
13	0xbe80888b	-0.25104174
14	0xbec1df9c	-0.37865913
15	0xbe47d532	-0.19514921
16	0xbe4b83f6	-0.19874558
17	0xbe21044f	-0.157243
18	0xbd3e310a	-0.046433486
19	0xbe5f70f4	-0.21820432
20	0xbe0af56d	-0.13570185
21	0xbcf8fbee	-0.030393567
22	0x3e6fb2f8	0.23408115
23	0x3d7b64dd	0.061375488
24	0x3ddf03ae	0.10889374
25	0xbe227cf1	-0.15867974
26	0xbd82512a	-0.06363137
27	0x3d19acbd	0.03751825
28	0x3e42f248	0.19037735
29	0x3e47b126	0.1950117
30	0xbd94c04e	-0.07263242
31	0xbe059cb7	-0.13048063
32	0xbe373c00	-0.17893982
33	0xbe92b649	-0.28654698
34	0x3d409ed5	0.047026474
35	0xbe171477	-0.147539
36	0xbe1ade8f	-0.15123962
37	0xbcc949e2	-0.024571363
38	0x3e953b44	0.2914678
39	0x3da7f11e	0.08200286
40	0x3e05a421	0.13050891
41	0xbc64c685	-0.013963346
42	0xbd9eab15	-0.07747475
43	0xbc1f6c68	-0.009730436
44	0x3e8c9431	0.2745681
45	0x3e46731d	0.1937985
46	0xbe24e84b	-0.16104238
47	0xbe1cd938	-0.15317237
48	0x3e2005db	0.15627234
49	0xbe3e15cd	-0.18563004
50	0xbe164993	-0.14676504
51	0x3e5babd5	0.21452267
52	0x3e2467a2	0.16055158
53	0xbe8cc611	-0.27494863
54	0xbdaba96b	-0.08381923
55	0x3e127cb9	0.1430539
56	0x3dbfa1fb	0.09357067
57	0xbe0bbc4c	-0.13646048
58	0x3d7e11ba	0.062028624
59	0xbe4cf67b	-0.200159
60	0xbd51f390	-0.05125767
61	0xbe5ed54b	-0.21761052
62	0xbe32a362	-0.17445138
63	0x3e0b7753	0.13619737
64	0xbdea358a	-0.11435993
65	0xbe2598d0	-0.16171575
66	0xbe1a54f4	-0.1507147
67	0xbe860fa7	-0.26183817
68	0xbd11caf2	-0.035593934
69	0xbe10c3aa	-0.1413714
70	0x3e72a0de	0.23694178
71	0x3cc2cbbe	0.023778792
72	0xbe7f43a8	-0.24928153
73	0x3c6922bf	0.0142294755
74	0x3d8d4194	0.06897274
75	0xbe8069d4	-0.2508074
76	0x3e833a99	0.25630644
77	0x3e7d5cb2	0.24742392
78	0xbec04d1d	-0.37558833
79	0xbe8c3817	-0.27386543
80	0xbcb0f0ec	-0.021599256
81	0x3d8c635a	0.06854887
82	0xbbdbd05a	-0.006708187
83	0x3de5e98f	0.112261884
84	0x3db88e88	0.09011561
85	0xbe8253ef	-0.2545466
86	0xbc90fb46	-0.017697942
87	0x3e88da08	0.26728845
88	0x3e1168f9	0.142002
89	0x3e00e5fc	0.12587732
90	0xbe2cc23b	-0.16870968
91	0x3d185d0c	0.03719811
92	0x3d140bf5	0.036144216
93	0xbe8354fe	-0.2565078
94	0xbe6a8607	-0.2290269
95	0x3e3578ce	0.17721865
96	0x3e331be1	0.17491104
97	0x3e4b311e	0.19842955
98	0x3e5f50e3	0.218082
99	0x3ce20cca	0.027593989
100	0xbdbfa239	-0.093571134
101	0x3c366798	0.011133097
102	0xbe07596c	-0.13217705
103	0x3e7b82f8	0.2456168
104	0xbe7d9d24	-0.24766976
105	0xbd88ab1e	-0.06673263
106	0xbd87b227	-0.06625777
107	0x3cade8a1	0.02122909
108	0x3e436f20	0.1908536
109	0xbd9876a9	-0.07444508
110	0x3daa9db2	0.08330859
111	0xbccab8ae	-0.024746265
112	0x3e66d73d	0.22543044
113	0x3c1fc118	0.009750627
114	0x3c722158	0.014778458
115	0xbe8fd5ef	-0.28092906
116	0xbdcb2c03	-0.09920504
117	0x3cd9531e	0.026528891
118	0x3e8b0337	0.2715089
119	0x3e7ac5c5	0.24489506
120	0x3e66e5b5	0.22548564
121	0x3da9fade	0.08299802
122	0xbd0e1865	-0.034691233
123	0x3e323a78	0.17405117
124	0x3e25c134	0.16186982
125	0x3dd85cb4	0.10564557
126	0xbdd769f2	-0.10518254
127	0x3e243395	0.16035302
128	0x3e5b967e	0.21444127
129	0xbe4d7166	-0.2006279
130	0x3e6ae70a	0.22939697
131	0xbd525d2a	-0.05135838
132	0xbd808be2	-0.062766805
133	0xbc064622	-0.008195432
134	0x3eb8288b	0.35968432
135	0x3d877f68	0.06616098
136	0x3e2d3b0a	0.16917053
137	0x3d7fb561	0.062428836
138	0xbe9fa60a	-0.31181365
139	0xbe0b5894	-0.13608009
140	0xbd49b591	-0.04924542
141	0x3d0e30e6	0.034714602
142	0xbedb1cc9	-0.427954
143	0x3e3db3e0	0.18525648
144	0x3dc68154	0.09692636
145	0x3dbc0c94	0.091820866
146	0xbe05779d	-0.1303391
147	0xbc70d9cf	-0.014700367
148	0x3e8e76a5	0.27824894
149	0x3dec34cc	0.11533508
150	0xbd06b2f8	-0.03288552
151	0xbdf32770	-0.118727565
152	0x3e3201a8	0.17383444
153	0xbcd97337	-0.026544197
154	0x3cee10ea	0.0290608
155	0x3de5121e	0.11185096
156	0xbe1ea5f2	-0.1549299
157	0x3d73e4f1	0.059544507
158	0xbc7a1b29	-0.015265265
159	0x3e9ae191	0.3025022
160	0x3cd08f98	0.025459096
161	0xbe47d254	-0.19513828
162	0xb9357b40	-0.0001730742
163	0x3de6181d	0.11235068
164	0xbe4370dc	-0.19086021
165	0xbdb228cd	-0.086991884
166	0x3d9c9261	0.07645107
167	0x3d763543	0.060109388
168	0xbdf017a5	-0.1172326
169	0x3e120bb9	0.14262284
170	0xbd8c0154	-0.06836191
171	0xbe85910a	-0.2608722
172	0x3e082a18	0.13297307
173	0xbdc96573	-0.09833803
174	0xbcba5729	-0.02274664
175	0xbdd27cfe	-0.102777466
176	0xbcf692e5	-0.030099342
177	0xbe99678f	-0.2996182
178	0x3d07664c	0.033056542
179	0x3d71e584	0.059056774
180	0x3e08f9e5	0.13376577
181	0x3dc6f8bd	0.09715412
182	0x3d65be90	0.056089938
183	0xbe083400	-0.13301086
184	0xbe14f3f0	-0.1454618
185	0xbe67b555	-0.22627766
186	0x3e1bbdaf	0.15209077
187	0xbd970f25	-0.073759355
188	0x3df6265f	0.120190375
189	0x3e2f37ad	0.17111082
190	0x3d96d352	0.07364525
191	0x3e3a2b38	0.18180549
192	0xbdf7c867	-0.120987706
193	0xbe1dd40b	-0.15412919
194	0x3ddf797d	0.10911844
195	0xbe3c62de	-0.1839709
196	0x3e16ee40	0.14739323
197	0xbe3a5550	-0.18196607
198	0xbe069474	-0.13142568
199	0xbe4a8f33	-0.19781189
200	0xbe821cd1	-0.2541261
201	0xbd82034c	-0.06348285
202	0x3d9e2008	0.07720953
203	0x3db23d92	0.0870315
204	0x3ddfd8db	0.10930034
205	0x3e15087e	0.14554021
206	0xbe1825a4	-0.14858109
207	0xbd4081fb	-0.04699896
208	0x3e3c173f	0.18368243
209	0xbe26de5c	-0.16295761
210	0x3d11ea5a	0.035623886
211	0xbbbf3313	-0.005834946
212	0xbe65775b	-0.22408812
213	0xbda3e9b3	-0.08003559
214	0x3d6ff18b	0.058579963
215	0xbd5a1784	-0.053245082
216	0x3d2624f6	0.040562592
217	0xbd6d1442	-0.057880647
218	0xbdfff664	-0.12498167
219	0x3d65514a	0.055985726
220	0x3daf9d49	0.08574922
221	0xbd1ddc33	-0.038540076
222	0xbe64fc9a	-0.22361985
223	0xbe34b096	-0.17645487
224	0xbe35e293	-0.17762212
225	0x3d94e599	0.07270355
226	0x3dda2dc2	0.10653259
227	0xbdf30eea	-0.11868079
228	0x3d9df886	0.07713418
229	0xbe291d03	-0.16514973
230	0xbe1b66b6	-0.151759
231	0x3e4e44fb	0.20143501
232	0xbe4edaaa	-0.20200601
233	0xbe40582a	-0.18783632
234	0xbd8941f3	-0.06702032
235	0x3c11803a	0.008880669
236	0x3e298bf0	0.16557288
237	0x3e0fba74	0.1403597
238	0xbd3eb6fe	-0.046561234
239	0xbb09903e	-0.0020990516
240	0xbe060f4d	-0.13091774
241	0x3d281539	0.041035865
242	0x3de1354e	0.10996495
243	0xbd8d1ff7	-0.068908624
244	0xbe57c94b	-0.21072881
245	0xbe78fbde	-0.2431483
246	0x3c6795cd	0.014134836
247	0xbe15c676	-0.14626488
248	0x3e02a12e	0.12756798
249	0x3e453d36	0.19261631
250	0xbdcf2ddc	-0.10116169
251	0x3e579edf	0.21056698
252	0x3dc5933a	0.09647222
253	0xbd1097ba	-0.035300948
254	0xbe95450c	-0.2915424
255	0xbea76607	-0.32695028

lstm.bias_ih_l0 f4 [64]
0	0x3e500d73	0.2031763
1	0xbd1f8402	-0.03894425
2	0xbdbe9547	-0.09305816
3	0xbe472231	-0.19446637
4	0xbe1a1e55	-0.15050633
5	0x3deec65c	0.11658928
6	0xbe0b82b4	-0.13624078
7	0xbcf5c1bf	-0.029999612
8	0x3d2344aa	0.039860405
9	0x3ea74a35	0.32673803
10	0x3e059ca6	0.13048038
11	0xbc2af5eb	-0.010434608
12	0xbdf56f12	-0.119840756
13	0x3e0bae96	0.13640818
14	0xbd0e41a9	-0.034730587
15	0xbdb0a143	-0.08624508
16	0x3d3c313b	0.045945387
17	0xbe2223e6	-0.15834007
18	0xbe1d0f39	-0.15337838
19	0x3dd2f0ea	0.10299857
20	0xbe55399b	-0.20822756
21	0x3e41389f	0.18869255
22	0x3ea48cb9	0.32138613
23	0xbdee457c	-0.11634347
24	0xbdffe6b2	-0.124951735
25	0x3e84fbda	0.25973397
26	0xbcaa9088	-0.020820871
27	0xbd50e23a	-0.050996996
28	0x3e3f15af	0.18660615
29	0xbdff790f	-0.12474262
30	0x3df727f1	0.12068165
31	0xbe81b9d1	-0.2533708
32	0x3e0bc6b7	0.13650022
33	0xbb85d591	-0.004084297
34	0xbcee37b2	-0.029079292
35	0xbe687581	-0.22701074
36	0xbe1857a8	-0.14877188
37	0xbdace6d4	-0.084424645
38	0x3da3af08	0.07992369
39	0xbe698edb	-0.22808401
40	0xbe3f3381	-0.18671991
41	0xbe037eb3	-0.128413
42	0xbe09ee17	-0.1346973
43	0x3e02f962	0.12790444
44	0x3e8a060e	0.26957744
45	0x3e95c405	0.29251114
46	0xbe2a3a1e	-0.16623732
47	0x3b859349	0.0040763956
48	0xbd001664	-0.031271353
49	0xbdaf2ccd	-0.08553467
50	0xbe0e0f86	-0.13873109
51	0x3dac4db1	0.08413256
52	0x3e5c17b9	0.21493424
53	0x3dd19fea	0.10235579
54	0xbc332c31	-0.010935829
55	0xbe1d03c7	-0.15333472
56	0x3e28b597	0.16475521
57	0xbde83cac	-0.11339697
58	0x3e8aff08	0.27147698
59	0xbc700bc9	-0.014651247
60	0xbe19b3e6	-0.15010032
61	0x3d9688a0	0.07350278
62	0x3e89a9f5	0.2688748
63	0x3e0106a6	0.12600192

lstm.bias_hh_l0 f4 [64]
0	0xbc8b4d82	-0.017004732
1	0xbdd19446	-0.10233359
2	0x3dba0aef	0.09084117
3	0xbe251700	-0.16122055
4	0xbe50e1ed	-0.20398684
5	0x3e68869c	0.227076
6	0x3d69558c	0.05696635
7	0x3e1e57b2	0.1546314
8	0x3e050e1b	0.12993662
9	0x3eade29d	0.33961955
10	0x3dc586aa	0.09644826
11	0xbdd8feaf	-0.10595452
12	0x3d73883c	0.059456095
13	0xbc379a56	-0.01120623
14	0x3cbdf53b	0.023188224
15	0x3ddd2cde	0.10799573
16	0x3e44cb70	0.1921823
17	0x3da63197	0.08114927
18	0x3e3a4046	0.18188581
19	0x3e85a81e	0.26104826
20	0x3dc4269a	0.09577675
21	0x3d6c88e3	0.057747733
22	0x3e2a6302	0.16639331
23	0xbda973d2	-0.08274044
24	0x3d9c5c30	0.07634771
25	0x3e826709	0.25469235
26	0xbe127e5c	-0.14306015
27	0xbdeb016f	-0.11474883
28	0x3e20121f	0.15631913
29	0xbe3e8344	-0.18604761
30	0x3e553921	0.20822574
31	0xbe8ec9d7	-0.27888367
32	0x3e05d0c2	0.13067916
33	0x3e11ca99	0.14237441
34	0xbd884531	-0.06653822
35	0xbe1a607b	-0.15075867
36	0x3e8ca34c	0.27468336
37	0xbd556592	-0.052098818
38	0x3dd091a0	0.10184026
39	0xbe361a4b	-0.17783467
40	0x3bfd8d3c	0.0077377837
41	0x3d2373fa	0.039905526
42	0xbe33891f	-0.17532776
43	0xbe323e15	-0.17406495
44	0xbd862412	-0.065498486
45	0x3e590250	0.21192288
46	0xbe32993d	-0.17441268
47	0xbe4d61d3	-0.20056848
48	0xbe047007	-0.1293336
49	0xbe16da61	-0.14731742
50	0xbdb25f84	-0.087096244
51	0x3e7e7030	0.24847484
52	0xbe0eef61	-0.13958503
53	0x3e99acd9	0.30014685
54	0x3e61bae3	0.22043948
55	0xbd827a7b	-0.063710175
56	0x3c9b64cc	0.018968962
57	0xbd8081ab	-0.06274732
58	0x3e2052d2	0.15656593
59	0x3df71136	0.120638296
60	0xbdb6aef8	-0.089200914
61	0x3e7e1c0a	0.24815384
62	0x3dd7210a	0.105043486
63	0x3da58516	0.08082025

lstm.weight_ih_l0_reverse f4 [64, 16]
0	0x3df2821e	0.11841224
1	0x3b4a3328	0.0030853245
2	0xbe76f69a	-0.24117509
3	0xbe37932f	-0.1792724
4	0xbd2f04f6	-0.04272934
5	0xbe8ac3b5	-0.27102438
6	0xbd7824db	-0.060582023
7	0x3e4a167a	0.19735137
8	0x3e3a415c	0.18188995
9	0xbd957bbe	-0.072989926
10	0xbe38f197	-0.18060909
11	0xbdce324d	-0.10068188
12	0x3e0d8eca	0.13824001
13	0xbe3639b2	-0.17795447
14	0x3e1df9c0	0.15427303
15	0x3e8e570e	0.27800792
16	0xbc70afc6	-0.014690345
17	0x3d845e9d	0.064633586
18	0x3dab765d	0.083721854
19	0x3e06a8fb	0.13150398
20	0xbaf07407	-0.0018345126
21	0xbe31e24b	-0.1737148
22	0x3c145bc4	0.009055082
23	0xbdf26588	-0.11835772
24	0xbdf855ef	-0.121257655
25	0xbd4ced88	-0.050031215
26	0xbe4048ea	-0.18777815
27	0xbdd98780	-0.10621548
28	0x3b46714f	0.003027994
29	0xbd59f73c	-0.053214297
30	0x3c306f82	0.010768773
31	0x3e709384	0.23493773
32	0x3dbe5d13	0.09295096
33	0xbe57d6d7	-0.21078049
34	0x3e21dd29	0.15807022
35	0x3dbb5d2b	0.0914863
36	0x3e86ff06	0.26366442
37	0xbd08c7e4	-0.033393756
38	0xbd554df1	-0.052076284
39	0x3e4a51cf	0.1975777
40	0xbdc28e64	-0.09499815
41	0x3e43bbc2	0.19114593
42	0xbc80a82b	-0.015705189
43	0x3e28e05d	0.16491838
44	0xbd139c1d	-0.036037553
45	0xbe50c7bf	-0.20388697
46	0x3db3e890	0.08784592
47	0x3cfa3b92	0.030545983
48	0xbe3cb303	-0.18427663
49	0xbe047a1d	-0.12937208
50	0x3e2f811f	0.171391
51	0x3dcd8554	0.10035196
52	0x3dae5aaf	0.0851339
53	0x3e4b00fc	0.19824594
54	0x3e2790af	0.16363786
55	0x3d9a7976	0.07542698
56	0xbe883a8c	-0.26607168
57	0xbe450f6c	-0.19244164
58	0xbe2b2df3	-0.16716747
59	0xbc8fc4eb	-0.017549952
60	0x3e7c34b1	0.24629475
61	0x3d09291a	0.033486463
62	0xbe30753b	-0.1723222
63	0xbd1bf419	-0.038074587
64	0x3e684f9a	0.22686616
65	0x3e26d784	0.1629315
66	0x3d9b32b2	0.07578029
67	0x3dc3f4ef	0.09568202
68	0x3d0a3a2e	0.03374689
69	0xbded7b83	-0.115958236
70	0xbda17d20	-0.07885194
71	0x3e442eff	0.19158553
72	0xbccddb61	-0.025129022
73	0x3e8033fe	0.25039667
74	0x3d38f736	0.045157634
75	0x3db41c91	0.08794511
76	0xbe9f92ee	-0.31166786
77	0xbe0b940e	-0.13630697
78	0xbd9c7cf8	-0.076410234
79	0x3eb6b024	0.3568126
80	0xbe2b95b5	-0.16756327
81	0x3e3da996	0.18521723
82	0x3db170c4	0.086640865
83	0x3cd7c91a	0.02634101
84	0xbe4f6bd5	-0.20255978
85	0x3b99d930	0.00469508
86	0xbe4793b1	-0.19489934
87	0x3e6783e1	0.22608902
88	0xbceeb9c0	-0.029141307
89	0x3d1d76aa	0.038443245
90	0x3d8930aa	0.06698735
91	0xbd7f65b7	-0.062352862
92	0x3e3cd76f	0.18441556
93	0xbe15f45b	-0.14643995
94	0xbe092355	-0.13392384
95	0xbe61a14c	-0.22034186
96	0x3e36071f	0.17776154
97	0x3e02d8e6	0.12778053
98	0x3e8da304	0.27663434
99	0xbe5ec4d5	-0.21754773
100	0x3df59cb9	0.11992783
101	0x3d292a1d	0.041299928
102	0xbd19d396	-0.0375553
103	0xbd9c9445	-0.07645468
104	0x3d3affcc	0.045654103
105	0xbe2185f7	-0.1577376
106	0x3d42c445	0.04755046
107	0x3c6a5627	0.014302767
108	0x3b42561d	0.0029653378
109	0x3c568c41	0.013094963
110	0x3ea0d726	0.31414145
111	0xbd19e70e	-0.037573867
112	0x3ec0e94b	0.37677988
113	0x3de1b442	0.110207096
114	0xbdfbf8ad	-0.123032905
115	0xbe097966	-0.13425216
116	0xbebb3c33	-0.36569366
117	0x3b9e1436	0.0048241867
118	0x3e767a2d	0.24070044
119	0x3d7f8ea4	0.062391892
120	0x3e016914	0.1263774
121	0x3e877574	0.26456797
122	0xbe69e683	-0.2284184
123	0x3ea8ba33	0.3295456
124	0xbdc2aa83	-0.09505179
125	0x3e1c656c	0.15273064
126	0x3dd48120	0.10376191
127	0xbd9ef2d7	-0.07761162
128	0x3dfd9763	0.1238239
129	0xbd9df989	-0.07713611
130	0x3e3577ae	0.17721435
131	0xbd92f027	-0.07174712
132	0xbd8fc4ce	-0.070199594
133	0x3d017cde	0.031613223
134	0xbe06e1d1	-0.1317208
135	0xbe012909	-0.1261331
136	0x3e892075	0.26782575
137	0x3e5c9bee	0.21543857
138	0x3de961e4	0.11395624
139	0x3b8363fb	0.0040097213
140	0xbe1f693f	-0.15567492
141	0x3e0dbbbe	0.13841149
142	0x3dc16c14	0.094444424
143	0x3d869f89	0.06573398
144	0x3d92590f	0.07145893
145	0xbe376f05	-0.17913444
146	0xbd7e6fb1	-0.062118236
147	0xbe0e734d	-0.13911171
148	0xbe725a0c	-0.23667163
149	0xbd0a3643	-0.033743154
150	0xbd1bee66	-0.03806915
151	0xbdfd892d	-0.1237968
152	0x3df07972	0.11741914
153	0xbe43ff63	-0.19140391
154	0x3c0214bb	0.007939513
155	0xbd424024	-0.04742445
156	0xbe5a787d	-0.21335025
157	0xbd8486cb	-0.06471022
158	0x3e44f42d	0.1923377
159	0x3c86f2ef	0.016473262
160	0x3c35c4a0	0.011094242
161	0x3e83b8a9	0.25726822
162	0x3e835460	0.2565031
163	0xbcb06a5b	-0.02153509
164	0xbda7a2b1	-0.08185328
165	0xbe7e4aa9	-0.24833168
166	0x3e91b311	0.2845693
167	0xbdad5216	-0.08462922
168	0xbd935482	-0.07193853
169	0xbaa98849	-0.0012934293
170	0xbe3a856f	-0.18214963
171	0xbc42dcbf	-0.01189345
172	0x3b73edc0	0.0037220567
173	0xbe2ba11b	-0.16760676
174	0xbca2edc1	-0.01988876
175	0xbd5cbaee	-0.053889208
176	0x3e55f458	0.20893991
177	0xbe142ccc	-0.14470214
178	0xbc137430	-0.008999869
179	0x3e4a05ae	0.19728729
180	0xbea2e1ee	-0.31812996
181	0x3e6ce2cd	0.23133393
182	0x3ce2b16f	0.027672498
183	0xbdb78383	-0.08960631
184	0x3dfdec4a	0.12398584
185	0x3df96abd	0.12178562
186	0x3dc04ee0	0.09390044
187	0xbe1e81b5	-0.15479167
188	0xbe6272e4	-0.2211414
189	0xbe796458	-0.24354684
190	0x3ea53368	0.32265782
191	0x3e67745e	0.22602984
192	0x3ddfec47	0.10933738
193	0x3da9ca34	0.0829052
194	0xbe3de919	-0.18545951
195	0x3e4e03d1	0.20118643
196	0xbcfcecff	-0.030874727
197	0xbe62d95f	-0.22153233
198	0xbd7c63b8	-0.061618537
199	0xbc0c1a58	-0.008551203
200	0xbd7dca67	-0.061960604
201	0xbd6b93dd	-0.05751406
202	0x3dbc2071	0.09185875
203	0x3e594545	0.2121783
204	0xbe6d8e3f	-0.23198794
205	0x3d76b1c3	0.06022812
206	0x3c98394a	0.018582005
207	0xbdc0703d	-0.09396408
208	0x3e3b83d3	0.18312006
209	0x3e508350	0.20362592
210	0xbdbe587d	-0.092942216
211	0xbe11bc6a	-0.1423203
212	0x3dd0b8f0	0.10191524
213	0x3e657ebb	0.22411625
214	0xbd2b893c	-0.041878924
215	0xbd75594f	-0.059899624
216	0x3da58a24	0.08082989
217	0x3c8d5296	0.017251294
218	0x3c5e06d4	0.013551433
219	0x3e61c6c9	0.22048487
220	0xbe15d5f5	-0.146324
221	0xbe4933f1	-0.1964872
222	0x3e10dd29	0.14146866
223	0x3d1abab8	0.037775725
224	0xbe10ac15	-0.14128144
225	0x3e2c8a09	0.16849531
226	0x3dbf2c7a	0.09334655
227	0xbe8bab50	-0.2727914
228	0x3e22ff65	0.15917738
229	0x3e587917	0.21139942
230	0x3e764963	0.24051432
231	0xbdd7f7f8	-0.10545343
232	0xbd75e255	-0.0600303
233	0x3d26b721	0.04070199
234	0xbe786b5b	-0.24259703
235	0xbd97f5a8	-0.07419902
236	0xbdf828ab	-0.12117132
237	0xbe5a981a	-0.21347085
238	0x3eb6ee5b	0.35728726
239	0x3e275d9d	0.16344304
240	0xbd8c7a9e	-0.06859325
241	0xbd55dd69	-0.052213106
242	0xbcbf7fba	-0.023376334
243	0xbe768ce2	-0.2407718
244	0xbc9cda36	-0.01914702
245	0xbe21f86e	-0.15817425
246	0xbd8d4e5f	-0.06899714
247	0xbdbe952a	-0.093057945
248	0xbde61629	-0.112346955
249	0x3e8efdc8	0.27927995
250	0xbea06b71	-0.3133197
251	0x3e36a37a	0.17835799
252	0xbe16afaf	-0.14715455
253	0xbe131185	-0.14362152
254	0x3eaad3bc	0.33364666
255	0x3df39786	0.11894135

lstm.weight_hh_l0_reverse f4 [64, 16]
0	0xbe1d3b6b	-0.15354697
1	0xbe5f4829	-0.2180487
2	0x3de3225b	0.11090537
3	0x3b2b84b7	0.0026171634
4	0xbd7771e8	-0.060411364
5	0x3dc3a378	0.095526636
6	0x3df27b86	0.118399665
7	0x3cc5a4a2	0.024126355
8	0xbd107f4d	-0.035277653
9	0x3e4e44a0	0.20143366
10	0x3d9817df	0.07426428
11	0xbdfd943f	-0.12381791
12	0x3da151e3	0.07876947
13	0xbe1f9f8e	-0.15588209
14	0x3da2684d	0.0793005
15	0x3eb5858a	0.35453445
16	0xbcd953a0	-0.026529133
17	0x3df96713	0.12177863
18	0x3db06c47	0.08614402
19	0xbe8ae51a	-0.27127916
20	0x3e426173	0.18982486
21	0xbd65ee98	-0.056135744
22	0xbe108e34	-0.14116746
23	0xbe5025ed	-0.20326968
24	0x3ccbf67d	0.024897808
25	0xbe49f12f	-0.1972091
26	0x3e23efd5	0.16009457
27	0xbe209c0a	-0.15684524
28	0xbdc845ea	-0.0977896
29	0xbe88d716	-0.26726598
30	0x3d896e2e	0.06710468
31	0x3deccf17	0.11562937
32	0x3e3dfae9	0.18552746
33	0xba94b9ca	-0.0011346873
34	0xbd93766a	-0.0720032
35	0x3e000fcb	0.12506025
36	0x3df9698f	0.12178337
37	0x3ddf610d	0.10907183
38	0xbde38984	-0.111102134
39	0xbe6bf2c3	-0.23041825
40	0x3e245b21	0.16050388
41	0x3e832126	0.25611228
42	0xbd3895d2	-0.045064755
43	0xbe18f1f8	-0.14936054
44	0x3da12606	0.078685805
45	0xbe0c72a1	-0.13715602
46	0xbd70febc	-0.058836684
47	0x3e2ab84d	0.16671868
48	0x3e3ce37d	0.18446155
49	0xba225e7e	-0.000619389
50	0xbe2d7685	-0.16939743
51	0xbe249cb5	-0.16075404
52	0xbd7a7796	-0.061149202
53	0xbe30b208	-0.17255414
54	0xbe671a97	-0.22568737
55	0xbe4d172d	-0.20028372
56	0x3b099d93	0.0020998463
57	0xbe72fecd	-0.23730011
58	0x3dc4e7e2	0.09614541
59	0xbdbeca39	-0.09315915
60	0x3d6e00e7	0.05810633
61	0x3e2ad7fe	0.16683957
62	0xbde0415f	-0.109499685
63	0xbe43bcb2	-0.1911495
64	0x3e71436b	0.23560874
65	0x3e303e3c	0.1721124
66	0xbe886ad9	-0.26644018
67	0xbe7ecf3d	-0.24883743
68	0xbe83889e	-0.25690168
69	0x3e055521	0.13020755
70	0x3e0e3e49	0.13890947
71	0x3d41422f	0.04718226
72	0x3d56c4d7	0.052433815
73	0xbe204234	-0.15650254
74	0xbe03e296	-0.12879404
75	0xbe8bde58	-0.27318072
76	0x3df0da62	0.11760403
77	0xbd8047f4	-0.06263724
78	0x3e0570ef	0.13031362
79	0x3e5a93f7	0.21345507
80	0xbd5f540b	-0.05452351
81	0x3d9ed46d	0.07755361
82	0xbd03b479	-0.032154534
83	0x3da4a97e	0.080401406
84	0xbd8ba0ea	-0.06817801
85	0x3e2955f3	0.16536693
86	0xbe02387b	-0.12716858
87	0x3decfb03	0.11571314
88	0xbea42a65	-0.32063594
89	0x3bb2c6b3	0.0054558157
90	0xbe1bc4c5	-0.1521178
91	0x3dd82ef7	0.10555833
92	0xbe4c1e9f	-0.19933556
93	0x3e48d1f7	0.19611345
94	0xbcdf1694	-0.027232446
95	0xbe98af4d	-0.29821244
96	0xbe437540	-0.19087696
97	0xbe9ebcff	-0.31003568
98	0xbe4b762d	-0.19869299
99	0xbdec250c	-0.11530504
100	0xbdadb38f	-0.08481514
101	0xbd600ccb	-0.0546997
102	0xbdc1f00a	-0.09469612
103	0xbdc38d40	-0.09548426
104	0xbd8ac7cb	-0.06776389
105	0xbe1a3db0	-0.15062594
106	0x3d166e4a	0.036726274
107	0xbd9d797f	-0.07689189
108	0x3e74a50d	0.23891087
109	0x3db0a61f	0.08625435
110	0xbeb99655	-0.36247507
111	0xbdba652d	-0.09101329
112	0x3e9afc24	0.30270493
113	0xbbd3a522	-0.0064588943
114	0x3cac02be	0.020997401
115	0xbe27f9a3	-0.16403823
116	0x3e11e419	0.14247169
117	0x3dae1b12	0.08501257
118	0x3dffdb6e	0.12493025
119	0x3de2edb9	0.11080498
120	0x3b01d568	0.0019811038
121	0xbc50a7f8	-0.012735359
122	0x3e014b68	0.12626421
123	0xbe0a5017	-0.13507114
124	0xbd213b7f	-0.03936338
125	0x3ddc7b9d	0.10765765
126	0xbdcda776	-0.10041706
127	0xbcf478b9	-0.029842721
128	0x3eb38ea5	0.35069767
129	0xbe687bdf	-0.22703503
130	0xbe125e81	-0.14293863
131	0xbcc93a5e	-0.024563964
132	0xbe120963	-0.14261393
133	0x3e160472	0.14650133
134	0xbe5ee6bd	-0.21767707
135	0xbea88c57	-0.3291957
136	0x3df4cd20	0.11953187
137	0xbca2ee29	-0.019888954
138	0x3d7b9942	0.061425455
139	0xbe168fc4	-0.1470328
140	0x3d691c7a	0.056911923
141	0x3e481d6d	0.19542475
142	0x3dc56d2c	0.096399635
143	0x3d3e3cd7	0.04644474
144	0x3e2f6847	0.17129622
145	0x3d6217db	0.05519853
146	0x38046178	3.1562027e-05
147	0xbe6d8dde	-0.2319865
148	0x3e06ecd4	0.1317628
149	0x3b4deb00	0.0031420588
150	0xbe94de5e	-0.29075903
151	0x3e4837d0	0.19552541
152	0x3e8997ce	0.2687363
153	0x3e8a04ce	0.2695679
154	0x3e3c6950	0.18399549
155	0xbe63d02f	-0.22247384
156	0x3e18ca7c	0.14920992
157	0xbda4d851	-0.080490716
158	0xbe9b3cd1	-0.30319837
159	0xbd3b12dc	-0.045672283
160	0x3e2e59f8	0.17026508
161	0xbd7fe34c	-0.062472627
162	0x3d8fe35f	0.070257895
163	0x3d4de205	0.050264377
164	0x3e9f3f11	0.31102803
165	0x3d81ff9b	0.06347581
166	0x3d98cb02	0.07460596
167	0x3e1da32d	0.15394278
168	0x3e03063c	0.12795347
169	0xbd692d2f	-0.056927856
170	0x3d4589c1	0.048227075
171	0xbe8f93f6	-0.28042573
172	0x3ea2ea80	0.31819534
173	0xbd9a07fa	-0.07521053
174	0x3cd2d393	0.025735652
175	0xbdc7a2fc	-0.09747884
176	0xbdb89116	-0.09012048
177	0x3d3a01fc	0.04541205
178	0xbd4343bd	-0.047672022
179	0xbd90191f	-0.070360415
180	0xbc1eeb48	-0.00969965
181	0xbd5ed268	-0.054399878
182	0xbdb45a7d	-0.08806322
183	0xbe4f99de	-0.2027354
184	0x3e4a53ec	0.19758576
185	0x3e0daef1	0.13836266
186	0x3e110516	0.14162096
187	0xbcdf1e6c	-0.027236186
188	0xbdc4c015	-0.09606949
189	0xbe524be1	-0.20536758
190	0xbe6ad698	-0.22933424
191	0x3c981d29	0.018568592
192	0x3e0af0c0	0.13568401
193	0xbe85c3f5	-0.26126066
194	0xbe6c1ba3	-0.23057418
195	0xbdf12160	-0.11773944
196	0xbd867f10	-0.06567204
197	0xbda380ba	-0.07983537
198	0xbe38e9f8	-0.18058002
199	0x3ddf0eba	0.10891481
200	0xbe412935	-0.18863375
201	0x3e47260a	0.19448105
202	0x3e8928f8	0.2678907
203	0x3d8eaefd	0.0696697
204	0x3eaf8c39	0.3428667
205	0x3d2f0640	0.04273057
206	0xbe0d5800	-0.138031
207	0x3e15781b	0.14596598
208	0xbc93076f	-0.01794788
209	0xbe14996a	-0.14511648
210	0xbdae1881	-0.085007675
211	0x3e38332e	0.17988274
212	0xbdad88f0	-0.084733844
213	0x3e91044a	0.28323585
214	0x3d8fb21b	0.07016393
215	0xbdcadf62	-0.09905888
216	0xbd69d30a	-0.05708603
217	0xbddaa2b2	-0.10675563
218	0xbe1d16de	-0.15340754
219	0x3adb5745	0.0016734382
220	0xbe3b416e	-0.18286678
221	0xbe0d4b02	-0.13798144
222	0x3d6a1607	0.057149913
223	0xbd1e1ee3	-0.038603675
224	0xbd2e9c35	-0.04262944
225	0x3e32107f	0.17389105
226	0xbd79a111	-0.06094462
227	0xbe578135	-0.21045382
228	0xbd21816d	-0.03943007
229	0x3e87d160	0.26526928
230	0xbe57ae2a	-0.21062532
231	0xbdbef3e4	-0.09323862
232	0xbe49f656	-0.19722876
233	0x3e568ab0	0.20951343
234	0x3ea1703d	0.31530944
235	0x3dabefd7	0.08395355
236	0xbda1d8c8	-0.07902676
237	0x3e07be9e	0.13256308
238	0x3ce65b4e	0.02811971
239	0xbe0a8809	-0.13528456
240	0xbd6edbd4	-0.058315113
241	0xbe42d7a7	-0.19027577
242	0x3e035cfa	0.12828436
243	0xbe9a589c	-0.3014573
244	0x3e30cf0f	0.17266487
245	0xbc32c01b	-0.010910059
246	0x3ced2ed4	0.028952993
247	0x3e48a4a1	0.19594051
248	0xbe000db1	-0.12505223
249	0x3e9e3604	0.30900586
250	0x3df17bc0	0.117911816
251	0xbdf58b5e	-0.11989473
252	0x3dcf982c	0.10136446
253	0x3d3b4506	0.045720123
254	0xbe0ddbc0	-0.13853359
255	0x3e20bec8	0.15697777

lstm.bias_ih_l0_reverse f4 [64]
0	0xbde56010	-0.11199963
1	0xbcb32f9e	-0.021873292
2	0xbdfac004	-0.12243655
3	0xbd1db4f3	-0.038502645
4	0x3da5ca4b	0.08095225
5	0xbe10f937	-0.14157568
6	0xbdd7a72f	-0.105299346
7	0x3d0155ed	0.031576086
8	0x3e9ceadf	0.30647942
9	0xbe2c39fd	-0.16818996
10	0xbb43c489	-0.0029871783
11	0x3e18d213	0.14923887
12	0x3e9f97ee	0.311706
13	0x3cbb6568	0.022875503
14	0x3e02f9c0	0.12790585
15	0xbe084e7e	-0.13311192
16	0x3deed155	0.11661021
17	0x3d4156fd	0.0472021
18	0x3cc2a4fb	0.02376031
19	0xbe573ec5	-0.21020038
20	0xbb7464ce	-0.003729153
21	0x3e68993c	0.22714704
22	0x3e069814	0.1314395
23	0x3e8ff8d9	0.28119543
24	0x3e68571c	0.2268948
25	0x3d886fdc	0.066619605
26	0x3e60610a	0.21912017
27	0xbdf24799	-0.118300624
28	0x3e9c0de5	0.3047935
29	0x3eb33a89	0.35005596
30	0x3e52d461	0.20588829
31	0xbe009cee	-0.12559864
32	0xbda64543	-0.081186794
33	0xbe188a68	-0.14896548
34	0xbda2047d	-0.07911012
35	0x3cd4bd7b	0.025969258
36	0xbacc1264	-0.0015569446
37	0x3e02c8bd	0.12771888
38	0xbd125135	-0.035721976
39	0xbe41aaa5	-0.18912752
40	0xbe2bfe70	-0.16796279
41	0x3e1c5e6a	0.15270391
42	0x3d77182c	0.060325786
43	0xbda383e4	-0.079841405
44	0xbe388019	-0.18017615
45	0x3d7243be	0.059146635
46	0x3cb56c8d	0.022146488
47	0x3e7bf894	0.24606544
48	0x3e05fb55	0.13084157
49	0x3d9769d6	0.073932335
50	0xbb6bfd56	-0.0036009154
51	0xbe68d8ca	-0.22738948
52	0x3e8c9acd	0.27461854
53	0xbd909932	-0.0706047
54	0x3ca1f6b4	0.019770958
55	0x3ea48b8b	0.32137713
56	0x3e5f2ff7	0.21795641
57	0xbd3f7595	-0.046742994
58	0xbd23106c	-0.039810583
59	0xbdd9a8e8	-0.106279194
60	0x3e4f38e2	0.20236543
61	0x3e671993	0.2256835
62	0x3eba2225	0.36354175
63	0x3e1d5e8c	0.15368098

lstm.bias_hh_l0_reverse f4 [64]
0	0x3e964196	0.29346913
1	0x3c25c1b4	0.010116983
2	0xbca80b28	-0.020513132
3	0x3e26048d	0.16212673
4	0x3e23ea70	0.160074
5	0xbe2c63ae	-0.168349
6	0x3da4802b	0.080322586
7	0xbc73e43b	-0.014885957
8	0x3dbdcfd1	0.092681535
9	0xbd7a211f	-0.061066743
10	0x3e1e8558	0.15480554
11	0xbc140df5	-0.009036531
12	0x3bdbb023	0.0067043467
13	0x3e8e2d1b	0.27768788
14	0x3d73081c	0.059333906
15	0xbe0afd8a	-0.1357328
16	0xbe002810	-0.12515283
17	0x3ddabcdc	0.10680553
18	0x3d8e8476	0.06958859
19	0x3ce63755	0.028102556
20	0x3e937fd2	0.28808457
21	0xbcb200b6	-0.021728855
22	0x3dec4bf4	0.115379244
23	0xbc4bbc39	-0.0124350125
24	0xbd5925f8	-0.053014725
25	0xbbe8857d	-0.007095991
26	0x3e2b3a05	0.16721351
27	0x3d696830	0.056984127
28	0xbcc399f6	-0.023877125
29	0x3e4f9809	0.2027284
30	0x3e118712	0.14211681
31	0xbd88960c	-0.06669244
32	0x3e740d49	0.23833193
33	0x3d012134	0.031525806
34	0xbe6ef747	-0.23336516
35	0xbd9387bf	-0.07203626
36	0x3e037ab8	0.12839782
37	0xbdb25d34	-0.08709183
38	0xbde9c18e	-0.11413871
39	0x3da30a35	0.07960931
40	0x3e51f5e0	0.2050395
41	0x3d815afd	0.06316183
42	0x3e06cc8b	0.13163964
43	0xbe8337f3	-0.25628623
44	0xbac2b34a	-0.0014854458
45	0x3e0db75d	0.13839479
46	0xbb1e2598	-0.0024131294
47	0xbdc517a7	-0.09623652
48	0x3e8577e7	0.2606804
49	0xbde6889b	-0.11256524
50	0xbd888dd4	-0.066676766
51	0x3e628b82	0.2212353
52	0x3cb4020f	0.021973638
53	0x3e010bf3	0.12602215
54	0x3eab6f01	0.33483127
55	0x3eabe3d0	0.33572245
56	0x3e993df5	0.29930082
57	0xbc45a3c2	-0.012062969
58	0xbe24833b	-0.16065685
59	0x3d56b97e	0.052422993
60	0x3eaf6f66	0.34264678
61	0xbd46120c	-0.048357055
62	0x3d68b180	0.056809902
63	0xbdabc541	-0.083872326

lstm.weight_ih_l1 f4 [64, 32]
0	0x3cc51e04	0.024062164
1	0xbe14b8c3	-0.14523606
2	0x3dbeafe2	0.09310891
3	0xbd59f221	-0.053209428
4	0xbdd34dc5	-0.10317568
5	0x3dcc1ec9	0.09966809
6	0x3d9346ad	0.07191215
7	0x3d2ac945	0.04169585
8	0xba6d778a	-0.0009058645
9	0xbdec9ff5	-0.11553947
10	0xbea4870f	-0.32134292
11	0xbe0f722e	-0.140084
12	0x3d519dce	0.051175885
13	0x3e134256	0.14380774
14	0xbe7efcf2	-0.24901178
15	0xbe0ae84c	-0.13565177
16	0x3e5c8454	0.21534854
17	0xbe467813	-0.19381742
18	0xbe0a08df	-0.13479947
19	0xbd80be2d	-0.06286273
20	0x3d1e9793	0.03871877
21	0xbe0fe3c9	-0.14051737
22	0xbe3396c3	-0.1753798
23	0x3ceac7cb	0.028659722
24	0xbcaae1dc	-0.020859651
25	0xbe2fefe4	-0.17181355
26	0x3e091160	0.13385534
27	0xbe151646	-0.14559278
28	0x3ddcbaa8	0.10777789
29	0xbe8522b7	-0.26003048
30	0x3d9b6829	0.07588226
31	0x3ea64e1a	0.32481462
32	0xbde46c13	-0.11153426
33	0xbdd0e892	-0.10200609
34	0x3e1bb2d3	0.15204935
35	0xbdb959ad	-0.090503074
36	0x3e8580c6	0.2607481
37	0x3e03c1ec	0.12866944
38	0xbddd3b06	-0.108022735
39	0x3e26ec84	0.16301161
40	0xbe5ac3ac	-0.21363705
41	0x3e11d5b5	0.14241679
42	0xbe330e9a	-0.17486039
43	0xbe0dfb35	-0.13865359
44	0x3ddf7040	0.10910082
45	0x3de68b49	0.11257035
46	0x3d43f2c0	0.047838926
47	0x3e541f4e	0.20715067
48	0x3cfb1a9c	0.030652337
49	0xbe390955	-0.18069966
50	0xbdc2083e	-0.09474228
51	0x3c8301ab	0.015992006
52	0x3db74841	0.08949328
53	0xbd9ca728	-0.0764907
54	0xbdfb8fe8	-0.12283307
55	0xbe3b8e8f	-0.183161
56	0x3e5bf3f9	0.21479787
57	0x3e0b1a7f	0.13584326
58	0x3e13531a	0.1438717
59	0xbea17296	-0.31532735
60	0xbd62b4b4	-0.055348113
61	0xbea7c533	-0.3276764
62	0xbd8aece2	-0.06783463
63	0x3e45b820	0.1930852
64	0x3e42ae33	0.19011764
65	0xbc698d84	-0.014254931
66	0x3ea5dbb5	0.32394186
67	0x3d424f7f	0.047439095
68	0xbd431aed	-0.0476331
69	0xbe1ff0df	-0.15619229
70	0xbdb34832	-0.087540045
71	0xbe9e2d46	-0.30893916
72	0xbe101977	-0.14072214
73	0xbea8102e	-0.32824844
74	0xbe944ec9	-0.28966358
75	0xbea8d0bc	-0.32971752
76	0xbddc8a57	-0.10768574
77	0x3dca722f	0.0988506
78	0xbe86d084	-0.2633096
79	0x3e23b532	0.1598709
80	0x3e224240	0.15845585
81	0xbe730fed	-0.23736544
82	0xbdace42d	-0.084419586
83	0x3ca9e0e9	0.020737128
84	0x3eaef371	0.34170106
85	0x3db6de08	0.08929068
86	0xbe373623	-0.17891745
87	0x3e1834b2	0.14863852
88	0x3e3640af	0.17798112
89	0x3d0a7c3c	0.033809885
90	0xbdbea900	-0.09309578
91	0xbe97b9c9	-0.2963393
92	0x3d6779fe	0.056512825
93	0xbe4022c3	-0.1876326
94	0xbd11a158	-0.03555426
95	0x3e7ce1ba	0.24695483
96	0xbdc4e38b	-0.09613713
97	0xbd8e6990	-0.06953728
98	0xbd9e5005	-0.07730106
99	0xbe91a4cf	-0.2844605
100	0xbcb64a2c	-0.022252165
101	0xbe4e589a	-0.20150986
102	0x3e052b48	0.13004792
103	0x3db444b1	0.08802164
104	0xba67c0f5	-0.00088407035
105	0x3da38d94	0.07985988
106	0xbe88dfb0	-0.2673316
107	0xbb96455f	-0.0045859064
108	0x3e539600	0.20662689
109	0xbc60b51b	-0.013715054
110	0xbd955810	-0.07292187
111	0xbc29e936	-0.010370543
112	0xbe039ad0	-0.12852025
113	0xbd14939d	-0.036273587
114	0xbd4a5b54	-0.049403504
115	0xbe90e694	-0.28300917
116	0xbd0a3ec2	-0.033751257
117	0x3e15aa2f	0.14615701
118	0xbe0f68f3	-0.14004879
119	0xbdeb03ca	-0.11475332
120	0x3e546aad	0.20743819
121	0x3dc62698	0.0967533
122	0x3d87abcd	0.06624565
123	0xbe759033	-0.23980789
124	0x3ea2c8e7	0.317939
125	0xbdbb0a6b	-0.091328464
126	0x3d35eb4d	0.044413853
127	0x3df49877	0.11943143
128	0xbe114b3f	-0.1418886
129	0x3d2380b9	0.03991768
130	0xbd253153	-0.040330242
131	0x3defa7cf	0.11701929
132	0x3e2456ef	0.16048788
133	0xbe9f6bf1	-0.3113704
134	0x3ea8858f	0.32914397
135	0x3d78b2c1	0.060717348
136	0xbdbe0359	-0.09277982
137	0xbe8b6f8d	-0.27233544
138	0xbd4afb7d	-0.049556244
139	0xbe9864b2	-0.29764324
140	0x3cf1be28	0.029509619
141	0x3e4fcfeb	0.20294158
142	0xbdaf55be	-0.08561276
143	0xbe024bfe	-0.12724301
144	0x3d8431b4	0.064547926
145	0xbd5268be	-0.05136942
146	0xbe42f6d1	-0.19039465
147	0xbdab62cd	-0.08368454
148	0xbd134d1d	-0.035962213
149	0xbe577eb9	-0.21044435
150	0xbe8ba973	-0.27277717
151	0x3e4284e0	0.18996
152	0x3df3301a	0.11874409
153	0x3ea2fa65	0.3183166
154	0x3e8c9e3c	0.27464473
155	0xbcec8bcf	-0.02887526
156	0x3e6f6b8c	0.2338087
157	0xbea396c3	-0.3195096
158	0xbdcae687	-0.09907251
159	0x3b3f3e2e	0.002918135
160	0xbd09d78f	-0.03365284
161	0xbdb4ddb3	-0.08831348
162	0x3e5e977f	0.21737479
163	0xbc69b274	-0.014263738
164	0x3e8bc689	0.27299908
165	0xbe05b72f	-0.1305816
166	0x3e8d165f	0.2755613
167	0xbdaed094	-0.08535877
168	0xbd4001c3	-0.04687668
169	0x3d3b56e3	0.04573716
170	0xbe9dcc13	-0.3081976
171	0x3d700465	0.05859794
172	0x3e4f44f5	0.20241149
173	0x3e83a6a0	0.25713062
174	0xbea8c193	-0.32960185
175	0x3e735206	0.23761758
176	0x3d9204d7	0.071298294
177	0xbbb6fb21	-0.005584136
178	0x3e02a46d	0.12758036
179	0x3e1f0733	0.1553009
180	0xbdba3219	-0.090915866
181	0x3e2cc7b3	0.16873054
182	0x3d406e3b	0.046980124
183	0x3dc3a059	0.09552068
184	0xbdd5fff4	-0.1044921
185	0x3e959758	0.2921703
186	0x3e5c6244	0.2152186
187	0xbe8487dd	-0.25884905
188	0xbcd8c501	-0.026461126
189	0x3e11848f	0.14210723
190	0xbe103dec	-0.14086121
191	0x3e9c0009	0.30468777
192	0x3db1f286	0.08688836
193	0x3d4d49ad	0.05011909
194	0xbe1d173d	-0.15340896
195	0x3d2df7fc	0.042472824
196	0x3e4881a8	0.1958071
197	0xbdf9e1e6	-0.1220129
198	0x3e9ab430	0.30215597
199	0xbdc61ec6	-0.09673838
200	0xbe8f1cca	-0.27951652
201	0x3da65be9	0.08122999
202	0xbe9ff409	-0.31240872
203	0xbea5fe84	-0.32420743
204	0x3eaf4bfc	0.3423766
205	0xbd8b2cf3	-0.06795683
206	0xbe99639f	-0.29958817
207	0x3e77b6cb	0.24190824
208	0xbd368571	-0.044560853
209	0xbe510035	-0.20410235
210	0x3e28a6db	0.164699
211	0xbdc43d78	-0.09582037
212	0x3e52d72c	0.20589894
213	0xbdaa2f56	-0.0830981
214	0xbdc94996	-0.098284885
215	0xbc1f695e	-0.009729711
216	0xbd54d4fa	-0.051960923
217	0xbb651677	-0.0034956017
218	0x3dc0c840	0.09413195
219	0x3d1d0a7a	0.03834007
220	0xbe0292aa	-0.1275126
221	0xbdd922f6	-0.106023714
222	0xbe85ad76	-0.26108903
223	0xbd3f3d84	-0.046689525
224	0x3d04dacf	0.032435235
225	0x3d8a3e2e	0.06750141
226	0xbdff419e	-0.12463687
227	0xbe196943	-0.1498156
228	0xbba51eea	-0.0050390856
229	0xbe3b8db9	-0.18315782
230	0x3bedbc51	0.007255115
231	0xbe26d440	-0.16291904
232	0x3d809468	0.06278306
233	0x3e51b55b	0.20479338
234	0xbdafb3e1	-0.08579231
235	0x3e1a57e2	0.15072587
236	0x3e5a8b02	0.2134209
237	0xbe21d224	-0.15802819
238	0xbd5c862e	-0.0538389
239	0xbd81676e	-0.06318556
240	0xbe3cfa36	-0.18454823
241	0xbe92906e	-0.28625816
242	0x3e472172	0.19446352
243	0xbcba29b9	-0.022724973
244	0x3dfa4380	0.12219906
245	0x3e7bb216	0.24579653
246	0xbe8aade5	-0.27085796
247	0xbde0882d	-0.109634735
248	0x3e7586cc	0.23977202
249	0x3d9959a3	0.074878
250	0xbe4ae506	-0.19813928
251	0xbd65ec8a	-0.056133784
252	0x3e988087	0.2978556
253	0xbe957531	-0.29190972
254	0xbe3f592c	-0.1868636
255	0x3e95f79e	0.2929048

lstm.weight_hh_l1 f4 [64, 16]
0	0xbdd386be	-0.103284344
1	0xbe3a9f71	-0.18224885
2	0xbe361832	-0.17782667
3	0x3e7de9ec	0.24796265
4	0x3cfdb9bc	0.030972354
5	0xbe322514	-0.17396957
6	0x3e9838cd	0.29730836
7	0x3e32bdf9	0.17455281
8	0xbe4de64a	-0.2010738
9	0xbdbdc7b0	-0.09266603
10	0x3e9d324d	0.3070244
11	0x3e4001f0	0.18750739
12	0xbda8f52f	-0.0824989
13	0xbe1b0a82	-0.15140727
14	0xbdd39fc0	-0.10333204
15	0x3c0ab1ca	0.00846524
16	0x3d5e5ccc	0.054287717
17	0xbe10530a	-0.14094177
18	0xbe36913d	-0.17828842
19	0x3e83c54d	0.25736466
20	0xbd7a10c4	-0.061051145
21	0xbda3de77	-0.08001416
22	0x3e28cd0e	0.16484472
23	0xbe8800ab	-0.2656301
24	0xbd28262a	-0.04105202
25	0xbe43aff9	-0.19110097
26	0x3e486c9d	0.19572683
27	0x3c546905	0.012964492
28	0xbe515a67	-0.20444642
29	0xbd256771	-0.040381853
30	0xbe2d538c	-0.16926402
31	0xbe201996	-0.1563476
32	0xbe1436c4	-0.14474016
33	0xbd422f08	-0.047408134
34	0xbdc0cf30	-0.09414518
35	0x3e852eed	0.26012364
36	0xbd509da9	-0.050931606
37	0x3e13f9a1	0.14450695
38	0x3e65b504	0.22432333
39	0xbe1ae214	-0.15125304
40	0xbdd6c737	-0.10487216
41	0xbe733500	-0.23750687
42	0x3e279bf5	0.16368087
43	0x3e1b769b	0.15181963
44	0x3d22441f	0.039615747
45	0x3dd7e9e8	0.10542661
46	0x3e18922c	0.1489951
47	0xbd4278d7	-0.047478523
48	0xbe5aed65	-0.21379621
49	0xbe7b71d2	-0.24555138
50	0x3d90f1fa	0.07077403
51	0xbe643626	-0.22286281
52	0x3e2f048c	0.17091578
53	0xbe4cbd96	-0.19994196
54	0xbe60271c	-0.21889919
55	0xbd5861e1	-0.05282772
56	0x3e7d55d4	0.24739772
57	0xbe20461c	-0.15651745
58	0x3d348d3b	0.04408
59	0x3c491323	0.012272629
60	0x3dc8d0c1	0.09805442
61	0x3dccba06	0.09996419
62	0x3e350b2f	0.17680047
63	0xbe6d9d41	-0.23204519
64	0xbd8977c9	-0.067123
65	0xbdfdcd15	-0.12392632
66	0xbd1e70d8	-0.038681835
67	0x3e8dbba8	0.27682233
68	0x3d45cdbb	0.048291903
69	0xbd96e7a3	-0.073684
70	0x3d936c7f	0.07198428
71	0xbe0b149c	-0.1358208
72	0xbdf03629	-0.1172908
73	0xbdd1286c	-0.10212788
74	0xbe0b79a3	-0.1362062
75	0xbe337495	-0.17524941
76	0xbe52fb4a	-0.20603672
77	0x3df0dbd2	0.117606774
78	0x3dd34490	0.10315812
79	0xbd87242f	-0.06598698
80	0xbd666a0f	-0.05625349
81	0xbe8b84da	-0.27249795
82	0x3e2a3d75	0.16625006
83	0x3ea5da9b	0.32393345
84	0x3d18febb	0.037352305
85	0x3dda3fd6	0.10656707
86	0xbe1cb0b7	-0.15301786
87	0xbe84c3c2	-0.259306
88	0x3d3e1aa4	0.046412125
89	0xbd925d29	-0.07146675
90	0xbe391a77	-0.18076502
91	0x3e108c54	0.14116031
92	0xbea3bbda	-0.31979257
93	0xbd87df18	-0.06634349
94	0xbe09c4f8	-0.13454044
95	0x3e1abeba	0.15111819
96	0x3e5f2fbd	0.21795554
97	0xbe09b346	-0.13447294
98	0xbe99769e	-0.2997331
99	0xbda951f1	-0.08267582
100	0x3d15fa5b	0.03661571
101	0x3e1137dc	0.14181465
102	0x3e43f371	0.19135834
103	0xbe1914c6	-0.1494933
104	0x3e9dc4e1	0.3081427
105	0x3d9125df	0.070873015
106	0xbd982978	-0.074297845
107	0x3db477d8	0.08811921
108	0x3e2b0ed2	0.16704872
109	0xbcd607e3	-0.026126808
110	0x3e12c1c0	0.14331722
111	0x3e8aab9c	0.27084053
112	0x3b3eb532	0.00290997
113	0xbe98784a	-0.29779273
114	0x3dfdb260	0.12387538
115	0x3e3d1d0b	0.1846811
116	0x3dbb6536	0.09150164
117	0xbd3f07d9	-0.046638343
118	0x3d88ef93	0.0668632
119	0xbe254821	-0.16140796
120	0x3e6fa310	0.23402047
121	0xbca12928	-0.019672945
122	0xbe0d18dd	-0.13779016
123	0xbe625bc2	-0.22105315
124	0x3e4e2c0b	0.20133989
125	0xbba07e7e	-0.0048978915
126	0x3c16d1f3	0.009205329
127	0x3d2121c3	0.03933884
128	0x3e96c948	0.2945044
129	0x3e423e39	0.18969049
130	0xbe734772	-0.23757723
131	0x3d304a4f	0.043039616
132	0x3e0e1cbd	0.1387815
133	0x3dcd0f49	0.10012681
134	0xbd9ab802	-0.07554628
135	0x3e28673b	0.1644563
136	0xbdbe0c20	-0.092796564
137	0x3e2b8aaa	0.16752115
138	0x3e8b09d2	0.2715593
139	0x3d68590c	0.056725547
140	0xbdb7db3d	-0.08977363
141	0xbe605d5b	-0.21910612
142	0xbe47e5f0	-0.19521308
143	0x3da9b9db	0.08287402
144	0xbd66b16e	-0.056321554
145	0xbe626380	-0.22108269
146	0x3d8a427a	0.06750961
147	0x3e49c36f	0.19703458
148	0xbd91ca1f	-0.0711863
149	0xbe25917c	-0.16168779
150	0x3d309e97	0.043119993
151	0xbe12a87f	-0.14322089
152	0xbdd1402c	-0.10217318
153	0xbe284b91	-0.16435076
154	0xbe263615	-0.16231568
155	0x3d4bedd5	0.04978736
156	0xbca97b7d	-0.020688767
157	0x3d7f15d0	0.06227666
158	0x3ddc280b	0.10749825
159	0x3d524ea7	0.05134454
160	0x3dca5b27	0.09880667
161	0xbe44977f	-0.19198416
162	0xbdfd449c	-0.12366602
163	0xbd6b2a9f	-0.057413694
164	0xbdd9d4bd	-0.1063628
165	0xbd9a7df5	-0.07543556
166	0x3e67cb8f	0.22636245
167	0xbe0fb337	-0.14033209
168	0x3d34878e	0.044074588
169	0x3db2deb9	0.08733887
170	0xbd114bdc	-0.035472736
171	0x3e3c943f	0.18415926
172	0x3e431270	0.19050002
173	0xbd57bbf8	-0.052669495
174	0x3e794926	0.2434431
175	0x3e70e75d	0.23525758
176	0xbe26e3bd	-0.16297813
177	0xbbd3877d	-0.0064553604
178	0x3e18e93d	0.14932723
179	0x3e3936dd	0.18087335
180	0xbc120c66	-0.008914089
181	0x3c2a4a88	0.010393746
182	0xbda06b6c	-0.07832989
183	0x3dfd1b56	0.123587295
184	0xbddc55aa	-0.107585266
185	0x3e2b5bdb	0.16734259
186	0xbe56c98f	-0.20975326
187	0x3d1494b6	0.036274634
188	0xbdb7b432	-0.089699164
189	0x3db9cec2	0.09072639
190	0xbdbbe1bc	-0.09173915
191	0xba831d25	-0.0010003193
192	0xbd71047b	-0.058842164
193	0x3e00cf24	0.12579018
194	0x3dac9e92	0.084286824
195	0xbdc0df12	-0.09417547
196	0xbe65b0f4	-0.22430784
197	0xbe72bcd6	-0.23704848
198	0xbdc0b21f	-0.09408974
199	0x3e4530ab	0.19256847
200	0x3e4f49dc	0.20243019
201	0xbe424bed	-0.18974276
202	0xbe4bc5bb	-0.19899647
203	0xbe2f5f6e	-0.17126247
204	0x3e2bf6fc	0.16793436
205	0xbe5b6e45	-0.21428783
206	0x3d1c70ce	0.038193516
207	0x3dab7f1d	0.08373854
208	0x3da998d5	0.082811035
209	0x3d5cc78b	0.053901237
210	0xbe7a25c2	-0.24428466
211	0xbe16ddcb	-0.14733045
212	0xbd6d57fd	-0.05794524
213	0xb8939181	-7.0366084e-05
214	0x3dcc4ed4	0.09975973
215	0xbb7a6f55	-0.0038213332
216	0xbe5d8a0b	-0.2163469
217	0xbd5912fb	-0.052996617
218	0x3e4470b6	0.19183621
219	0x3e332c26	0.1749731
220	0xbd676531	-0.056492988
221	0x3e3aafe1	0.18231155
222	0xbde031d4	-0.10947004
223	0xbe6c1f4a	-0.23058811
224	0x3e3d074b	0.18459813
225	0xbd9e7219	-0.07736606
226	0xbd821d95	-0.063532986
227	0x3e3b061c	0.1826405
228	0x3e060c57	0.13090645
229	0xbe54ea4e	-0.20792505
230	0x3e96cbd6	0.2945239
231	0x3e443060	0.19159079
232	0x3e1d9334	0.15388185
233	0xbe8a0a93	-0.26961192
234	0x3ddbb1b8	0.107272565
235	0x3e83914f	0.256968
236	0xbe546017	-0.2073978
237	0x39da9b6e	0.00041696004
238	0x3e187592	0.148886
239	0x3e9cb1a4	0.3060428
240	0xbe3012ef	-0.17194723
241	0x3e5c58f3	0.21518306
242	0xbe5da59d	-0.21645208
243	0xbb949c7b	-0.0045352555
244	0xbd86bf22	-0.065794244
245	0xbe9ab27d	-0.302143
246	0xbe0d81a3	-0.13818984
247	0xbdf1230c	-0.11774263
248	0x3e418048	0.18896592
249	0xbc310549	-0.010804483
250	0x3d862f53	0.06551995
251	0xbe068f0f	-0.1314051
252	0xbe94fd1f	-0.29099366
253	0xbc20543c	-0.009785708
254	0xbe444d43	-0.19170098
255	0x3d985218	0.07437533
